backend/models/lenet_mnist_2025-02-22_06.04.47.197422.pth (torch, 250922 bytes, 10 tensors)

conv1.weight f4 [6, 1, 5, 5]
000000 16 68 c3 bd e5 68 b4 3d 23 a9 4f be 99 bd 8d 3d
       -0.09541337 0.088090695 -0.20279364 0.069209285
000010 38 fc 0c 3e 2f 3f 27 bc d9 7c a6 3b f0 78 38 bd
       0.13768089 -0.010207935 0.005080801 -0.04503721
000020 16 06 05 3e 6d 70 48 be 88 c3 1b be a1 6f b0 bd
       0.12990603 -0.19574137 -0.15211308 -0.086150415
000030 50 12 ec bd 15 d1 f4 bd 77 3d 13 bd 22 65 4e 3e
       -0.1152693 -0.11953942 -0.03594729 0.20155767
000040 f7 f5 0b bd c8 a2 9a 3b 06 1c 21 3e dc d8 22 be
       -0.034170117 0.004719112 0.15733346 -0.15903038
000050 99 08 fd bc 97 c6 59 3e c8 1c 9e 3c 53 4d 1c 3e
       -0.030887889 0.21267162 0.019300833 0.15263872
000060 6a eb d9 3d 6a 66 15 3e 9f 3f 0e ba 81 3c 03 3e
       0.10640605 0.14589849 -0.00054263504 0.12816049
000070 f9 59 b0 3d 70 70 80 3d 41 0a 25 be bb 9e cc 3d
       0.08610911 0.06271446 -0.16117193 0.09991213
000080 1c d2 00 be 71 e5 0b 3e 47 22 10 3e a7 09 c2 3c
       -0.1258015 0.13661744 0.14075576 0.023686243
000090 00 10 fd bd 65 62 08 be 29 5b 41 be c9 0d 39 3e
       -0.123565674 -0.13318785 -0.18882431 0.18071665
0000a0 6c 25 f0 bc ca eb 20 3e 5a 58 54 3c 1e 22 42 be
       -0.02931472 0.15714946 0.012960518 -0.18958327
0000b0 05 54 04 bd 23 20 ff bd 33 d7 21 3e c8 13 11 be
       -0.03230669 -0.124573015 0.15804748 -0.14167702
0000c0 a4 6d 7d 3b fc e5 a8 bd 3d 16 a7 3d cb d4 be 3d
       0.0038670087 -0.08246991 0.081585385 0.09317931
0000d0 29 bf 8a 3d 14 f9 54 bc ee 1c 44 be 63 45 14 be
       0.06774742 -0.012998838 -0.19151661 -0.14479594
0000e0 95 4f 05 bc 68 35 14 3e 70 7b b7 bb 97 58 0f 3e
       -0.00813665 0.14473498 -0.0055994317 0.13998638
0000f0 2d d9 04 be 50 11 0b 3e 51 5f ca 3d b5 c5 bb 3d
       -0.12973471 0.13580823 0.098814614 0.09168569
000100 8a be 7f bd 17 24 f3 3c ab 2c f5 3c 1e be 8d bc
       -0.06243757 0.029680295 0.029928526 -0.017302569
000110 ad 2f 04 3e 5d 50 3f 3e 1f 65 a3 bd ab c1 5f be
       0.12908812 0.18683 -0.07978272 -0.21851222
000120 12 bd 2e be 3f ed 0d 3d a4 23 10 be ad c1 35 3e
       -0.17064312 0.034650084 -0.14076096 0.17749663
000130 d1 9e 38 be 3c 92 57 3c 1b 90 10 3e 07 4f f8 3d
       -0.18029334 0.013157424 0.14117472 0.12124448
000140 51 ce 1a 3e 72 37 c5 3d ef 98 84 3d 6c 32 e8 3d
       0.15117766 0.09629716 0.06474482 0.11337742
000150 df 22 1d 3e ae e2 27 be d8 b2 2d 3d 28 5c 42 3e
       0.15345334 -0.16395065 0.042406887 0.18980467
000160 09 c8 27 be 75 56 0e 3d 6b b7 c0 3c 59 21 4c be
       -0.16384901 0.03475042 0.02352496 -0.19934596
000170 40 82 58 bc 74 44 df 3d 99 b3 8e bd 48 76 2c be
       -0.013214648 0.10901728 -0.06967849 -0.16841996
000180 bf 5c 08 be 80 98 54 be cb b3 60 3d 86 50 13 3b
       -0.1331663 -0.20761299 0.054858964 0.0022478416
000190 97 c2 e6 bd 8a 46 38 3e 01 e9 6c bd 11 18 9f bc
       -0.11267584 0.17995659 -0.057839397 -0.019420655
0001a0 4a a2 08 be de 54 9e 3b 80 2a fa 3d 54 29 04 3e
       -0.13343158 0.0048318943 0.122151375 0.1290639
0001b0 d9 4d 0b 3e cf ee b5 bd 19 1c ee bd e9 39 e6 bc
       0.13603915 -0.0888344 -0.11626453 -0.028103786
0001c0 56 f2 46 3e 1c e2 19 3d 6c 6f 2d 3e 4b 30 64 3d
       0.19428381 0.03756915 0.16937035 0.05571012
0001d0 de 1f 71 3b 70 a8 a0 bd 43 2e 04 bd 44 0a 63 be
       0.0036792676 -0.07844627 -0.03227068 -0.22171885
0001e0 cc ae 92 3c 63 4a 6d 3d d6 01 ab bd 79 2e ba bd
       0.017905615 0.05793227 -0.083499596 -0.09090895
0001f0 35 9d ca bd 94 c1 32 3e a0 28 28 3d 02 39 27 be
       -0.09893266 0.17456657 0.041054368 -0.1633034
000200 5e 14 7c bd 60 8a 40 3d 38 92 f4 3d 8c d3 9c bd
       -0.06154286 0.047006965 0.119419515 -0.07657537
000210 c9 87 20 3e ef 3c ee bd 95 56 ba 3c f6 32 01 3e
       0.15676798 -0.11632716 0.022746364 0.12617096
000220 de ba 0c 3e 68 17 d7 3c 71 27 08 be 4d 33 60 bd
       0.13743159 0.026256278 -0.13296296 -0.054736424
000230 a7 68 0a 3e 38 a9 e1 3d 8b e7 80 be be e3 8d 3c
       0.13516484 0.11018604 -0.25176653 0.01732051
000240 2c 76 98 bd db 43 13 bd 44 d6 0e be ad 93 33 be
       -0.074444145 -0.035953384 -0.13948923 -0.17536803
000250 06 6e c1 3d 68 0d 2d 3d
       0.094448134 0.042249113

conv1.bias f4 [6]
000000 7d 30 22 3e 40 51 f0 bd af f4 12 3e 4d 2c 71 3d
       0.1583881 -0.11734247 0.14351152 0.05888014
000010 af 6a 4f bd bb 2d 2f 3e
       -0.05063885 0.17107289

conv2.weight f4 [16, 6, 5, 5]
000000 56 e0 8d bd de ee 73 bc e8 6a 10 bc de 82 22 ba
       -0.06927554 -0.014888493 -0.008814551 -0.00061993103
000010 31 99 56 3c b9 3e e3 ba 10 fb 9a bc 05 93 66 bd
       0.013098047 -0.0017337418 -0.018918544 -0.056292553
000020 44 90 9c bd 12 68 a6 bd 67 69 9f bd a7 56 2d bc
       -0.07644704 -0.081253186 -0.07783776 -0.010579742
000030 e0 9b 57 bc 72 41 53 bd eb d5 bd bc c3 3d 4d bc
       -0.013159722 -0.051576085 -0.023173293 -0.012526932
000040 a6 48 6b 3d ec 6d c3 3d a4 c4 3c 3d f8 6f 13 3d
       0.05744233 0.0954245 0.04608597 0.035995454
000050 2e fe e1 bb 80 3a 8b 3c e3 d0 ef 3d b0 6c b9 35
       -0.0068967557 0.016995668 0.11709764 1.3815206e-06
000060 cd 28 38 3d 23 16 b5 3b af d6 4a bd 13 2c 3b bc
       0.044960786 0.0055263205 -0.049521144 -0.011424082
000070 01 53 da bc 15 2d 3b 3c 15 35 4c ba 62 cc 92 bd
       -0.026650907 0.011424323 -0.0007789892 -0.07167889
000080 ce ff 81 bd 81 2f ab 3d 11 a4 f5 3b eb 83 83 bd
       -0.06347619 0.0835867 0.007496365 -0.06421646
000090 91 ba 9e 3c 25 a0 81 bd 6e fd 90 3d 48 f8 1c 3d
       0.019376071 -0.06329373 0.07079588 0.038322717
0000a0 1b 97 c4 3d 41 1a 88 3d 34 d3 b3 3d 35 af 76 3d
       0.095991336 0.066456325 0.08780518 0.060225684
0000b0 65 6f 94 bc 4b 73 15 3d c7 92 c2 3d 88 be 71 3d
       -0.018119523 0.036486905 0.09500652 0.059019595
0000c0 56 0f 59 bd 0e 95 d1 3c fe 77 8b bc 0d 45 9c bd
       -0.05299314 0.02558377 -0.01702499 -0.07630358
0000d0 39 86 5e 3d 31 ad 5d 3d bd 90 8b 3c c5 7e de 3c
       0.054327223 0.054120246 0.01703679 0.027160058
0000e0 74 74 34 3d 8d f3 04 bd c3 18 8c bd 20 7f 41 3d
       0.04405637 -0.03245883 -0.068406604 0.047240376
0000f0 68 23 37 bd ef 37 12 3b 57 6f 8c 3d 89 e9 80 3d
       -0.0447115 0.002231117 0.06857174 0.06294543
000100 84 08 5f 3d 17 02 83 3d 1a 97 b2 bb d5 2f 52 3d
       0.05445148 0.06396883 -0.0054501416 0.051315147
000110 5b 51 15 bd 0c 6c 09 bd 4e e0 a4 3d 44 81 d3 3c
       -0.03645454 -0.033550307 0.08050595 0.025818475
000120 1d f0 ab 3d 0e 15 96 bd ea 86 ad bd d5 99 41 bd
       0.08395407 -0.073282346 -0.084729984 -0.047265846
000130 75 9b 6c bd 2f f3 8d bc f9 a7 1c 3c c3 a1 58 3d
       -0.057765443 -0.017327873 0.009561532 0.052888643
000140 9b ae 82 3c 24 cb a7 bd 82 80 9f bb 59 0d 8a 3d
       0.015952399 -0.08193043 -0.0048676142 0.06740827
000150 4a d4 dc 3b 1e d8 54 bd a1 19 49 3d 6a 26 d3 3c
       0.006739174 -0.051963918 0.049096707 0.025775153
000160 12 87 33 3d 48 a4 2e 3d 3d 30 16 bd 8f 79 a2 bd
       0.043829985 0.04263714 -0.036667097 -0.07933342
000170 96 a5 43 bd ac 77 33 3b 53 57 c5 bc e9 35 29 bc
       -0.047765337 0.0027384562 -0.024089491 -0.010327795
000180 a5 28 8f bd 40 9b af bd 59 d2 b3 bc f8 b1 93 bd
       -0.06990174 -0.085745335 -0.021950888 -0.07211679
000190 16 8b 50 bb 61 b7 5e 3d 0c 0c 87 3d 51 e3 54 bd
       -0.0031821183 0.054374103 0.06594095 -0.0519746
0001a0 50 7c 04 bd 3c 85 24 bc c8 4e 80 3d 8a 85 3b bd
       -0.032345116 -0.010041531 0.06265026 -0.04578165
0001b0 9a ec ac 3c ed e5 a4 3c ed cc b5 bd 3b 8e be bd
       0.021108914 0.020129168 -0.08876977 -0.09304472
0001c0 a8 db f0 bc 98 4b 15 3d b2 7d 09 bd 42 d1 87 bd
       -0.029401615 0.036449045 -0.033567138 -0.0663171
0001d0 b5 df af bc 87 d1 2a bd ba 0e e6 3a ea 77 44 3b
       -0.021468977 -0.041703727 0.0017551996 0.00299787
0001e0 6a 6f 0e bc b5 ea c7 bd e7 a5 37 3d 97 9f a2 bd
       -0.008693555 -0.09761564 0.04483595 -0.079405956
0001f0 b3 64 be 3d 7f df 46 3c 46 25 0d bd c9 92 19 3d
       0.092965506 0.012138247 -0.034459375 0.0374935
000200 05 d9 c0 3d 6e 9d b9 3d 43 4b 84 3d 55 e3 99 3d
       0.09416393 0.090632305 0.064596675 0.07514063
000210 df 19 29 bc d1 39 8f bc 0c 91 a8 3c 7b 63 7a 3d
       -0.01032111 -0.017483624 0.020576976 0.06113003
000220 ef 42 4a 3d 96 6f 63 bc f0 b5 9b bd ea 13 ec 3c
       0.04938024 -0.013881585 -0.07603061 0.02881809
000230 08 bf b8 3c 9c c4 8e bd df d7 99 bc c2 2b fe bd
       0.022552028 -0.06971094 -0.018779693 -0.1241069
000240 93 54 8b 3c 5a 56 65 bd bb ad fc 3c d0 68 d8 3b
       0.017008102 -0.055990554 0.03084456 0.0066042915
000250 6a 33 5d 3d 79 1e 27 bd 97 0f 8d bd 9c 4c 0a bd
       0.05400411 -0.040800545 -0.06887739 -0.033764467
000260 0e 7d 62 bd 5c 8d 49 3d 4b f5 bc 3c f0 95 41 3d
       -0.055295043 0.049207076 0.023066184 0.047262132
000270 73 6b e4 3c 65 12 33 bc a6 29 43 3d 41 db 00 3d
       0.027883267 -0.010929679 0.04764714 0.031459097
000280 ec 98 66 bd 8a d3 db b9 31 68 ab bd 43 7d 7c bd
       -0.05629818 -0.00041928544 -0.08369482 -0.061642896
000290 49 15 0d 3d bf e6 aa 3d 0e 15 4c 3d 78 64 f8 3c
       0.034444127 0.083447926 0.049824767 0.030321345
0002a0 51 b0 10 3d ca f9 32 bd 89 52 e0 3c cc 05 64 bd
       0.0353244 -0.04369525 0.027383106 -0.05566959
0002b0 f7 cd d2 3b fc 49 4c bd af 81 57 bc 5b 78 98 3d
       0.0064332443 -0.049875244 -0.013153478 0.07444831
0002c0 ed b1 07 bc c1 33 3c 3d ce bd de bc 88 64 4d bd
       -0.008282167 0.045947794 -0.027190115 -0.050144702
0002d0 95 8e d1 3d 17 8e 47 3d 21 ed df bc dd bd a0 3d
       0.102322735 0.04871949 -0.027334752 0.078487135
0002e0 95 5a 3a bd f7 1e 6d bd 5a fc 52 bc 4a 48 20 bb
       -0.045496542 -0.05789086 -0.012877548 -0.002445715
0002f0 ef 1a ea bb 5f bf 9c bc fe 4e cc bd 2f 83 86 bd
       -0.007144324 -0.019134222 -0.09976004 -0.0656799
000300 4f 8a 69 bd fb 23 95 bd 48 26 fb 3c 23 41 66 3d
       -0.057016667 -0.07282253 0.030657902 0.056214463
000310 3f c7 4b bb 72 89 35 3c a6 98 0c 3d 32 15 5b bd
       -0.0031094102 0.011080133 0.034325264 -0.05348701
000320 b4 66 3c 3c 02 d7 55 3c 46 56 40 3d ba 67 58 3d
       0.011499096 0.01305175 0.046957277 0.052833296
000330 be 4f 88 bc d6 9a 28 bd 43 06 41 bd 40 54 13 bd
       -0.016639587 -0.041163288 -0.047125112 -0.03596902
000340 2c 5c 0e 3d b0 ba 66 3c 58 33 1e bc 99 19 67 bd
       0.03475587 0.014082596 -0.009655796 -0.056420896
000350 b5 b6 ac bb a6 51 25 3d 6e 98 f6 bc 7f 25 71 3b
       -0.005270804 0.04036107 -0.030101981 0.003679603
000360 df 2f c8 bd 5e 5c 51 bc 00 8a 85 bd b3 18 e5 3c
       -0.09774756 -0.01277837 -0.06520462 0.027965879
000370 bf 9f 22 3d 4c a1 39 bd 3d 01 af bd c2 0c 8c 3d
       0.039703127 -0.04531984 -0.08545158 0.06838371
000380 30 76 13 bd 95 cd 78 bd 5a 90 55 3d e4 e1 ce 3c
       -0.036001384 -0.060742933 0.052139618 0.025254197
000390 ec 80 92 3d 1a 3c f7 3c cb 03 5c bd 64 25 98 3d
       0.07153496 0.030180026 -0.053714555 0.07429007
0003a0 dd 29 94 3d 3f da b5 3b 3d 92 84 3d 7c d5 8c bd
       0.07234547 0.0055496986 0.06473205 -0.068766564
0003b0 e5 c7 7d 3b 6a 11 ab 3b 4a b8 64 3c c7 1b 44 bd
       0.0038723883 0.005220582 0.013959954 -0.047878053
0003c0 2c db 62 bc df 8a c8 3c d1 e3 3b 3d dd a1 25 3c
       -0.0138462 0.024480281 0.04587156 0.010109392
0003d0 67 9d 67 3d e2 4c 71 bd b4 cc 45 bd 2a 86 88 bc
       0.056546595 -0.05891121 -0.048290923 -0.016665537
0003e0 db 85 0b bd e7 29 7a bd 07 28 bc 3d e3 f7 36 3d
       -0.0340632 -0.061075117 0.09187322 0.044669997
0003f0 d5 de 11 3d 50 7b 65 bc 82 b5 e2 bc 4c 48 29 bd
       0.0356129 -0.014006451 -0.02767444 -0.041328713

conv2.bias f4 [16]
000000 58 a5 0c 3d bd 7f 92 bd 03 7e ba bb 5b b8 63 3d
       0.03433737 -0.071532704 -0.0056912913 0.055595737
000010 e3 7a c3 bb 70 f1 06 3c ac d7 3c 3c fb 51 93 bd
       -0.005965577 0.008236274 0.01152603 -0.07193371
000020 3d ee a2 3d e8 aa 95 3c a9 0e 28 3d f2 e7 ee bc
       0.079555966 0.018269971 0.041029606 -0.029163335
000030 4c 2c 6e bd 13 11 47 bd 9c 7d a2 bd 9b ac 85 3d
       -0.058147714 -0.048600268 -0.07934114 0.065270625

fc1.weight f4 [120, 400]
000000 d9 36 d7 3c 24 56 09 3d 3a 71 eb bc e2 03 38 3d
       0.02627127 0.033529416 -0.028740514 0.044925578
000010 e8 18 18 3d cb a5 de bb 05 43 3e 3b 6e 0f 71 3d
       0.037133127 -0.0067946664 0.0029031646 0.058852606
000020 71 2b 23 bd 40 ea 33 bc 07 a7 6e 3d 32 3b 37 3d
       -0.03983635 -0.0109811425 0.05826476 0.044734187
000030 1e 90 f9 bb cb 33 99 3c 13 6f 54 ba 55 0e 34 bd
       -0.007616057 0.018701455 -0.00081037096 -0.04395898
000040 14 b1 39 3d 62 40 14 bd 35 73 95 bb c2 a7 26 3c
       0.04533489 -0.036194213 -0.004560853 0.0101718325
000050 68 97 cb 3b d7 9a 28 3d 44 d3 76 bc 5d 1c b8 ba
       0.0062131174 0.04116329 -0.015065018 -0.0014046539
000060 39 73 2d 3d 19 b3 36 3c fa 74 0d bc 55 03 15 ba
       0.042346213 0.011151099 -0.008633846 -0.00056843954
000070 9b 35 1b 3d 57 f3 94 3c 54 de 0e 3d a4 48 38 bd
       0.03789292 0.01818244 0.034879997 -0.04499115
000080 54 7c 51 bd 49 0a b7 3c cf 70 68 3d 1b 78 85 bc
       -0.05114396 0.022343772 0.056748208 -0.016292622
000090 a4 e9 3b 3b 58 79 af 3a f0 91 6a bc 29 1c 5d 3d
       0.0028673196 0.0013387604 -0.014317021 0.053981934
0000a0 cf 1e aa bd f2 76 d2 bc 69 86 02 3d 26 61 3e 3c
       -0.083066575 -0.025691483 0.031866465 0.011619842
0000b0 42 ec e9 bc f2 91 aa bc 06 52 8b bb 70 19 77 bc
       -0.02855504 -0.020821545 -0.0042517213 -0.015081748
0000c0 4b 16 4b bd d7 94 72 bc 8e 69 e1 3c 9d 86 bd bc
       -0.049581807 -0.014805994 0.027516153 -0.023135478
0000d0 a4 95 a6 3b c4 61 67 3d b7 95 df 3c 79 9d 9c 3c
       0.0050837565 0.05648972 0.02729307 0.019118058
0000e0 9e 65 19 3c cc 25 6a 3d ea e0 47 3d 46 2e 99 bc
       0.009362606 0.057164952 0.04879848 -0.018698823
0000f0 14 8d 9d bc 27 85 54 3d 6e b0 ae 3b 56 c0 16 bc
       -0.01923231 0.051884796 0.0053310907 -0.00920113
000100 48 49 27 bd 87 3c 2f bd e2 2e 21 bd 6b 6f fe bb
       -0.04084137 -0.042782333 -0.03935135 -0.007764747
000110 ed f6 c6 3a 56 c2 a7 3c 06 08 e3 3c 9b dd ec 3c
       0.0015179791 0.020478409 0.027713787 0.028914263
000120 75 2a a6 bc ef a9 3b 3b ac ee ec 3c 56 9c 98 bc
       -0.020283917 0.0028635224 0.028922401 -0.018629234
000130 bf 51 3f bd 9a ac 8d bc 15 91 ff 3b da f2 f8 bb
       -0.04670882 -0.017294217 0.0077992775 -0.0075973095
000140 5d 2a a2 bd ef d3 8d bd 29 93 2a bd 0b db 2c bd
       -0.079182364 -0.06925189 -0.04164425 -0.042201083
000150 82 ef 8f 3b 00 b7 b0 bc c6 3c f4 bc 0a 67 6b bd
       0.004392565 -0.021571636 -0.029814135 -0.057471313
000160 9d 39 6c 3c a8 2d 07 bc be f4 68 3d f9 6b 08 3d
       0.014418033 -0.008250631 0.05687403 0.033306096
000170 98 f2 a0 3a 28 84 21 bd 51 8c 38 3c fe a6 e1 bc
       0.001227933 -0.039432675 0.011263923 -0.027545448
000180 0b f3 91 3c cf 69 3f 3c 16 11 af 3c d1 49 27 3d
       0.017816087 0.011682942 0.021370452 0.04084188
000190 be e2 0b 3c 9e d7 28 3d 9a 26 87 bb 00 3f 71 3d
       0.008537946 0.041221254 -0.0041244747 0.058897972
0001a0 ed dd 4c 3c 0d 11 03 3d e2 42 07 3d 96 26 02 bd
       0.012504083 0.031998683 0.03302277 -0.03177508
0001b0 a7 62 f9 3c 71 06 5d bd 6d 8c 1a 3d d9 63 90 3b
       0.030442549 -0.05396122 0.037731577 0.004406434
0001c0 e3 6a 1f 3b ae d1 f6 3c 50 fe 2c 3c 3a f7 d4 bc
       0.0024325184 0.03012928 0.01055868 -0.025996793
0001d0 91 2d 09 3d 8d f8 2f bd f4 a4 36 bd b3 e6 a4 3b
       0.03349072 -0.042961646 -0.044590905 0.0050323843
0001e0 d8 a6 30 3d 4a 2d 13 3d 12 c9 97 bc b6 82 1f bd
       0.043127865 0.035931863 -0.018528495 -0.038943015
0001f0 fe 48 07 bd 9c bf 75 ba ff af ad bc 05 b4 32 bd
       -0.033028595 -0.00093745603 -0.021202086 -0.04362871
000200 5d 17 12 3c 13 9a 7d 3c c8 dc fa bb 4f b4 d8 bc
       0.008916703 0.015478629 -0.0076557137 -0.026453165
000210 76 cb 18 3d d5 04 f7 bc b6 d2 8a 3d ea 2a 73 bc
       0.03730341 -0.030153671 0.06778471 -0.0148417745
000220 45 01 d2 bc 17 3c be 3c 2b 1e 65 3c 40 53 0b bc
       -0.025635371 0.023222012 0.013984243 -0.008503735
000230 d0 9a 5b bc 7f eb dc 3c 2a 07 9c bb c2 be bf bc
       -0.013403609 0.026967762 -0.004761596 -0.02340639
000240 b7 86 c3 3c 0f a0 9d 3c c1 23 3f 3d e6 05 e7 bc
       0.023867948 0.019241361 0.046664957 -0.028201055
000250 ff f6 01 3c e2 27 51 3c 9b cf 39 bd 49 44 35 bd
       0.007932424 0.012765856 -0.045364004 -0.044254575
000260 0c a7 40 bd d4 41 7d bc f8 8f 49 bd 5a c4 cf 3c
       -0.04703431 -0.015457589 -0.049209565 0.025362182
000270 91 bf ae 3c b1 12 5f bb ca 4a b6 3c b6 e2 15 bd
       0.02133158 -0.003403824 0.02225246 -0.03659316
000280 15 b8 81 bd 6e b0 eb bc 45 87 df 3c 1e 6a 37 3d
       -0.06333939 -0.028770652 0.027286181 0.044778936
000290 f1 b4 4d 3c 7a 12 11 bd 3c 6b 1f 3d a2 35 47 3d
       0.012555347 -0.03541801 0.038920626 0.048635133
0002a0 1b 9d 96 bc 27 f1 3f bd 72 2a 18 3d d6 59 02 3c
       -0.01838546 -0.04686084 0.037149854 0.007955989
0002b0 94 c3 25 3b af c3 46 3c 55 44 2c 3d 9d 34 cd bc
       0.0025293576 0.012131616 0.042057354 -0.025049502
0002c0 3c e8 52 bc 0c aa 1f bc b6 2f fb 3b 79 d9 74 3d
       -0.012872752 -0.009745132 0.0076655997 0.05977771
0002d0 cc 35 38 bd b1 9d b3 bc 2d 3e 13 3d e6 3c 8b 3d
       -0.04497318 -0.021925779 0.035947967 0.06798725
0002e0 e1 be 87 bc 3f 56 a6 3c 3c 0c 08 3d 18 4e c9 3c
       -0.01657051 0.020304797 0.033214793 0.02457337
0002f0 f5 2f 8b 3c 53 12 50 3d 09 37 bb 3b 05 32 8f bb
       0.016990641 0.050798725 0.005713348 -0.0043699765
000300 b7 4f af 3c 65 c0 10 3d 28 21 4b bd e4 18 32 bd
       0.021400316 0.03533973 -0.049592167 -0.04348077
000310 7c 17 de bc 34 17 fa 3c 48 05 fe 3c 5c a3 1b 3d
       -0.027110808 0.030528642 0.031008378 0.03799759
000320 74 c6 63 3d 33 00 3b 3c 62 2d 3a bc 1d b9 5d bd
       0.05560918 0.011413622 -0.011363359 -0.054131616
000330 23 9c 80 3d 76 ac 84 3a 75 bf e8 bc 66 05 81 bd
       0.06279781 0.0010122198 -0.028411606 -0.06299858
000340 e1 b1 9a bb 93 8a 89 3c e7 5b e8 bb c2 a1 b9 3c
       -0.004720912 0.01678971 -0.0070910337 0.02266014
000350 b9 be 98 3b 4a 85 57 bd 7f d6 89 3d 2e 04 da bb
       0.004661408 -0.05261735 0.06730365 -0.0066533303
000360 e6 53 d6 3c b4 4c 3f bc c1 80 bd 3c 05 0a cd bb
       0.026163053 -0.011676002 0.023132684 -0.006257298
000370 3c 4d f5 3c e7 27 b4 3b 54 18 c7 3c d8 69 80 3d
       0.029944055 0.005497921 0.024303593 0.06270188
000380 f3 ae e6 3c de 6e a7 39 c8 e5 ec bc a0 26 27 3d
       0.028159594 0.00031935325 -0.028918162 0.04080832
000390 b9 7b 70 3c ee b7 3d 3d 5d 1b 6d bc 63 10 bd 3b
       0.014677935 0.046317987 -0.014471856 0.0057697757
0003a0 12 7d 52 bd a8 4e 2f 3d ed 3a a8 3c 76 a2 bd 3d
       -0.051388808 0.04279962 0.02053591 0.092595026
0003b0 54 fc a8 3d 05 17 9e bc ea 6c 48 bd 23 c0 2f 3d
       0.08251253 -0.019298086 -0.048931994 0.042907845
0003c0 44 b9 1d 3b cf 46 1d 3d c8 fc 14 bd d8 d4 92 bb
       0.0024066726 0.038397606 -0.036373883 -0.0044809394
0003d0 64 fb 80 bc 8a e7 53 3d 2d 9e 82 3c e9 04 3b bd
       -0.015744872 0.051734485 0.015944565 -0.04565898
0003e0 10 ad 64 bc 3f 71 6e 3d cd 5f 92 3d b0 ea ff bc
       -0.013957277 0.05821347 0.07147179 -0.031239837
0003f0 16 b9 0f 3d 94 bf 79 bb 5e 81 48 3d 26 f9 c8 bc
       0.03508862 -0.0038108574 0.0489515 -0.024532866

fc1.bias f4 [120]
000000 7b 9c 6b 3c b6 f8 89 3b 8b 70 cc bb 00 05 ce bc
       0.01438057 0.004210557 -0.006239002 -0.025148869
000010 68 ae ce bc a7 d6 26 ba 5e 21 03 bd cd 70 c4 bc
       -0.025229648 -0.0006364383 -0.032014243 -0.023979569
000020 91 c2 0c 3d c1 63 14 bd 1d 71 2d 3d 08 a4 f3 bb
       0.03436524 -0.036227945 0.0423442 -0.0074353255
000030 e4 63 02 bc 0c 98 30 3d 49 b3 00 3d 1e 66 e6 bb
       -0.007958386 0.043113753 0.03142098 -0.0070312163
000040 ac 64 85 ba 8c db 0c 3c b5 dd ef ba 2d 6b 23 3d
       -0.0010177097 0.008597266 -0.0018300327 0.039897133
000050 71 da ea 3c 8b 3d ea 3c 32 36 0f 3d c6 73 13 bd
       0.028668614 0.0285938 0.034963794 -0.035999082
000060 6b 60 06 bd d9 02 e0 3c b6 01 13 ba ef 76 2f 3d
       -0.032806795 0.027345108 -0.000560786 0.042838033
000070 01 6b 3c bd a8 75 ea bc a9 72 ae 3c 8c 88 25 bc
       -0.046000484 -0.028620556 0.021294909 -0.010103356
000080 55 4b a7 3b ac 18 8b 3c 4c 36 4a 3c 04 66 04 bd
       0.005105416 0.016979538 0.012342047 -0.032323852
000090 e9 77 15 3d 5f a7 5f bc d0 02 68 bc 64 da 48 3d
       0.03649131 -0.013650744 -0.014160827 0.0490364
0000a0 08 3e ec bc 48 dd ad 3c 61 27 d6 bc 15 f0 2a bd
       -0.028838173 0.02122368 -0.026141824 -0.041732866
0000b0 24 c1 51 3d f2 9d b8 ba 14 00 1f bd cd cd 49 3d
       0.051209584 -0.0014085157 -0.038818434 0.049268533
0000c0 b8 fc 29 bd 2c c1 8c bc 1f b5 ee 3b 9b 3d ae bc
       -0.041500777 -0.017181955 0.007284775 -0.02126961
0000d0 17 71 14 3c 86 a3 9a 3c aa 3a f0 3c 1f d5 0b 3d
       0.009060166 0.018876802 0.029324848 0.034138795
0000e0 1e 3a 64 3c 4f d0 29 3d 99 77 e7 3b 75 dc c0 bb
       0.013929872 0.041458424 0.0070638177 -0.0058856555
0000f0 71 8d 17 3d cb 28 14 bd 7e c8 06 bc 5e ea 8c bc
       0.037000123 -0.036171716 -0.008226512 -0.017201599
000100 50 a5 2c 3d e5 b7 c2 bc b3 be 45 3c 8f 18 08 bd
       0.04214984 -0.023769328 0.012069392 -0.033226546
000110 b8 7d bd 3a 4f e8 2b bd 2b 83 17 ba 75 ee 1f bd
       0.0014457023 -0.041969594 -0.00057797384 -0.03904577
000120 d5 7e 4d 3d 94 b4 51 bd 0b 47 53 bd f5 a8 b6 3b
       0.050169785 -0.051197603 -0.051581424 0.0055743405
000130 87 4e bb 3b bb 37 fd bc f3 64 2f bd 2a a8 1b 3d
       0.0057161483 -0.030910363 -0.042820882 0.03800217
000140 ca ac 7a ba da a1 40 bd 1b fb 23 3d 53 77 f6 bc
       -0.0009562491 -0.047029354 0.040034395 -0.030086195
000150 71 4c 36 3d d6 f4 87 3c 57 f1 5c 3b 2f 0b f9 3c
       0.044506494 0.016596239 0.0033713186 0.03040084
000160 43 d0 d1 3b 96 e2 e7 bc 37 a9 a9 3c fa 17 be bc
       0.0064030006 -0.028306287 0.02071057 -0.023204792
000170 cf cd 12 bd 03 69 82 bc 6e a1 00 bc 91 5d 8e 3c
       -0.035840806 -0.015919214 -0.007850988 0.0173786
000180 8b 22 b1 3c 06 85 46 3d ff cd 03 bd f2 b9 09 bd
       0.021622917 0.048466705 -0.032178875 -0.033624597
000190 bb 86 9b bc c3 47 3a bd f8 47 91 b9 c7 3e 8e bb
       -0.018985143 -0.045478594 -0.00027710176 -0.0043409797
0001a0 73 1c 1d bd f4 8c 4b bc 20 39 fd bc 74 ab 3e 3c
       -0.03835721 -0.012423743 -0.030911028 0.011637557
0001b0 31 e7 3b 3d c2 e8 ce 3c 85 f4 09 3d d1 e1 25 bd
       0.04587478 0.025257472 0.033680458 -0.04049856
0001c0 4c 48 bb bc 6d 99 bd 3b e0 0f 52 3d 1e 40 1b 3d
       -0.022861622 0.005786112 0.05128467 0.037902944
0001d0 0e 1e ab 3c 1f 70 1b bd 9c 5f c7 3c 6b dd 05 3d
       0.020888355 -0.037948724 0.024337582 0.032681864

fc2.weight f4 [84, 120]
000000 b9 16 97 bd a1 91 a9 bb dd 43 4a bd 73 88 1f bd
       -0.07377381 -0.005174831 -0.049381126 -0.038948487
000010 0d 61 88 3d a1 04 9e 3c 0f 44 7f bd 01 1b 45 3d
       0.06659136 0.019289317 -0.062320765 0.048121456
000020 f2 b8 f0 bc 6a 9e 01 bd 99 96 74 bd c0 a7 24 3d
       -0.029385064 -0.031645216 -0.059713934 0.04019904
000030 a4 4e 0f 3d da 5f b2 bc bc 32 97 3d 14 c7 d5 3c
       0.034987107 -0.021774221 0.07382724 0.026095904
000040 ea c1 c3 bb db 24 05 bc 6c fc 89 3d 1d 59 9b bd
       -0.005974044 -0.008126463 0.06737599 -0.075853564
000050 06 9c 47 3d 6f 8b 03 bd b1 ac e1 bc 65 37 df bc
       0.04873278 -0.032115396 -0.027548166 -0.027248094
000060 39 23 9b bd 1d d6 1b bd 2a 2a a3 bd df 2c 43 3d
       -0.075750776 -0.03804599 -0.079670265 0.047650214
000070 37 a0 dc 3c 4e 88 7c bd 7e e2 98 bd 91 66 ae 3b
       0.026931865 -0.061653428 -0.07465075 0.0053222855
000080 d6 9a c8 bd 75 fa ab 3c 60 96 89 bc e0 9f 39 bd
       -0.097951576 0.02099345 -0.016795337 -0.045318484
000090 33 f9 37 3d b0 6f eb bb c4 e8 09 bd 83 fb 7f 3d
       0.04491539 -0.007184945 -0.03366925 0.06249572
0000a0 ac 97 aa bd d2 1c 80 3d ed 2b b9 3d d7 7e c6 bc
       -0.0832971 0.06255497 0.09041581 -0.024230404
0000b0 59 5c 73 3d 22 ef 3d 3d 56 d0 8a 3d 40 10 c4 bc
       0.05941424 0.046370633 0.06778018 -0.02393353
0000c0 35 28 43 3c e4 0d 8d 3c 93 42 78 bd 18 c0 2e bd
       0.011911442 0.017218538 -0.060610365 -0.042663664
0000d0 10 c7 f9 bb 76 0b 1e 3d 00 b4 51 bd 2d 4d f2 3c
       -0.007622607 0.03858515 -0.051197052 0.029577816
0000e0 fc d3 49 3d 35 7f 77 bc 52 84 3f bd 71 e1 37 bd
       0.04927443 -0.015106012 -0.04675705 -0.044892732
0000f0 6b 44 2a bd 46 27 1d bc 0f 60 c1 bd de 0e d9 bd
       -0.041569155 -0.009591883 -0.0944215 -0.10598539
000100 d9 ee 75 3c a9 71 95 3d 8d 55 7b 3d 8c a6 a9 bc
       0.015010559 0.072970696 0.061360884 -0.020709299
000110 e8 0e d9 3c 62 23 53 bd a8 25 3b 3d 80 f3 18 bc
       0.026496366 -0.051547416 0.04569021 -0.009335399
000120 14 ab 28 3d 4f d7 87 bd e9 1f 07 3c 89 3a 85 bd
       0.041178778 -0.06632864 0.008247354 -0.06505305
000130 9a 49 14 bc 31 67 de bc eb 97 b0 bc 0a 65 53 bd
       -0.009050751 -0.027148815 -0.021556815 -0.05161003
000140 be be 8f 3c 6e f7 77 bd f5 42 53 bd 4c df 81 bd
       0.017547008 -0.0605387 -0.051577527 -0.063414186
000150 46 5d e8 3c be fe 9c bd 77 16 9f bd 3e 22 b1 bd
       0.028364789 -0.07665776 -0.07767957 -0.08649109
000160 69 9d 56 3c 5f 08 86 3c 1c bb 41 3d e5 65 3d 3d
       0.013099053 0.016361414 0.047297582 0.046239752
000170 5e 3e 93 3d ea 9e a8 bd dd 12 ce bd 4c 1d 2d bd
       0.0718963 -0.082334355 -0.10062192 -0.042264268
000180 9f 10 53 3d d3 14 3e 3d 25 89 6a 3d 10 04 3e bd
       0.051529523 0.04640658 0.057259697 -0.046390593
000190 49 f3 72 3c 34 55 b9 bd db 09 90 bd de a0 b1 3d
       0.0148285115 -0.09049454 -0.0703313 0.08673261
0001a0 10 39 9a bd 94 2a 53 3d 0b 4b 34 3b ce 23 70 bd
       -0.07530415 0.051554278 0.002751055 -0.058627896
0001b0 cd c7 c1 bd b0 46 89 bd 82 9c 5a 3d 1d 9a 35 3d
       -0.09461937 -0.06702936 0.053371914 0.044336427
0001c0 15 6c 74 bd 25 9e 26 3d 15 67 93 3d 91 4f 14 bd
       -0.059673388 0.040678162 0.07197396 -0.036208693
0001d0 52 f7 a7 3d 46 31 6c bd 70 1b f7 3b 1e 60 f4 3b
       0.082014695 -0.05766418 0.0075411126 0.007457747
0001e0 f2 fc 9e 3b fb 9b 9f 3d 43 55 91 3d 58 8c 20 bd
       0.004851931 0.07793423 0.070963405 -0.039196342
0001f0 ae c1 da bc c7 81 2d 3d e5 2d 41 bd 99 cf 3e 3d
       -0.026703682 0.042360093 -0.04716291 0.0465847
000200 07 ff 45 3d e3 b1 94 3d f3 5b 32 3d 16 32 aa bd
       0.048338916 0.07260492 0.04354472 -0.083103344
000210 9f b7 8b bd 20 19 b1 3c a8 99 5f 3d ab 8b b8 bc
       -0.06822132 0.021618426 0.054589897 -0.022527536
000220 5d 86 96 3d 75 47 59 bd 57 8f a0 3c f7 63 74 3b
       0.073498465 -0.053046662 0.0195996 0.003729103
000230 99 fd 4a 3d 79 0c f1 bc ca 45 7f bc 33 87 b6 3d
       0.049558256 -0.029424893 -0.015580604 0.08912506
000240 8e d3 3e bd 39 01 7a 3d 5e af a2 3d 93 fa 9d 3d
       -0.046588473 0.061036322 0.07943605 0.07713809
000250 0d 12 98 3d cf a8 d6 bd f4 ff 91 3d 39 e9 c7 3b
       0.07425318 -0.104814164 0.07128897 0.0061008004
000260 21 31 d1 3c 7d 92 05 bd b2 5d bf 3c 6e 33 1f bc
       0.025536122 -0.032610405 0.023360107 -0.009716852
000270 c0 df ad bb 89 b5 f0 3d ad 9b 98 3d 20 74 59 3d
       -0.005306214 0.11753375 0.07451568 0.05308926
000280 b4 4b 80 bd d3 02 98 3b b2 97 85 bd 57 75 1b bc
       -0.06264439 0.0046390085 -0.06523074 -0.009488425
000290 05 04 82 bc eb 24 6f 3c 41 26 88 3d 6a 11 b9 3d
       -0.015871057 0.014596204 0.06647921 0.090365246
0002a0 e7 2e e4 3c 3f 31 16 bd 3a 52 d3 3c 57 f6 e1 3c
       0.027854396 -0.03666806 0.025796045 0.027583284
0002b0 7e 74 95 3c 26 1d b3 3d 84 1d 8e bd 0a cb 3b 3c
       0.018244024 0.08745794 -0.069392234 0.0114619825
0002c0 09 cb ff bc 0b 9a b4 bd 3c db 84 3d aa e9 27 bc
       -0.031224744 -0.08818444 0.06487128 -0.010248581
0002d0 e4 d5 1f bd a3 61 9a 3d cb b0 3a 3c 21 70 c7 3d
       -0.03902234 0.07538154 0.01139469 0.09738184
0002e0 54 44 1f bd ab b6 bd bc f2 4a 01 bc f3 07 a3 3d
       -0.038883522 -0.023158392 -0.0078914035 0.079605006
0002f0 cc 49 24 bd 0c d8 9e bc fe a1 af bd 91 65 87 3b
       -0.04010944 -0.019390129 -0.085758194 0.0041319807
000300 10 b0 b4 bd 78 42 28 3d d5 ce 9f bd ac 9e 96 bd
       -0.08822644 0.041079015 -0.07803122 -0.07354483
000310 0b 09 4f bd 49 12 29 3c 74 bd 90 3c 2f 3d f1 3c
       -0.050545733 0.010319301 0.017668463 0.02944812
000320 1c 20 16 3d fe 52 a8 3d 70 dc a3 bd 3a f0 8f bc
       0.036651716 0.082189545 -0.080010295 -0.017570604
000330 52 f4 a6 bd d6 28 dc 3c 5b 13 9f 3d 36 63 80 bd
       -0.08152069 0.02687494 0.07767364 -0.06268923
000340 01 2d 1a bb 95 ca b9 3d eb e1 4f 3d e6 a3 17 3d
       -0.002352536 0.090718426 0.05075256 0.03702154
000350 ac 8e f4 bd 1c cd e6 3c df 8f 24 bd 98 2f bc bd
       -0.11941275 0.028173976 -0.04017627 -0.09188765
000360 c0 f1 26 3d a6 a6 35 3d 15 bd 6f 3c 00 a4 aa bd
       0.040757895 0.04434838 0.014632483 -0.08332062
000370 18 25 76 bd 4d 15 29 3d ab 25 ad bd 2c cb 28 bd
       -0.06009397 0.04128008 -0.0845445 -0.041209385
000380 16 91 38 3d 0a a3 87 3c d9 46 42 3d a9 81 04 3d
       0.04506024 0.016557235 0.047430847 0.032350216
000390 e0 08 73 3d 05 78 62 3c 59 87 c2 3d 53 56 4d bc
       0.059334636 0.01382256 0.09498472 -0.012532788
0003a0 62 bd 65 3d c0 04 a1 bd d6 4d 1b 3d 35 ec 8e 3d
       0.056088813 -0.07862234 0.037916027 0.06978647
0003b0 61 e4 f3 3c a7 40 9e 3d e2 fa 5f 3c 72 19 bf 3b
       0.029771985 0.07727175 0.013670655 0.0058318907
0003c0 53 9f 20 bd 7d 50 c1 3d 1e d1 96 bc bb f8 44 3d
       -0.039214443 0.0943918 -0.018410262 0.04808877
0003d0 c7 06 d5 3c 6e f0 d1 3d fd f3 1f bc bd eb 22 3d
       0.026004208 0.102509364 -0.009762761 0.0397756
0003e0 70 c2 43 bd e2 d9 5f bd cb a8 b7 3d ba ac a5 bd
       -0.047792852 -0.05465115 0.089677416 -0.080895856
0003f0 d0 b8 3f bd b4 86 25 bd ed 05 87 3d 45 21 52 bd
       -0.04680711 -0.040411666 0.06592927 -0.05130126

fc2.bias f4 [84]
000000 27 20 03 bd 6c 8e 94 3d 45 42 42 3b bf 01 5e bd
       -0.032013085 0.07253727 0.002964155 -0.054200884
000010 27 1c 16 bc a8 3b 1a bd a5 b9 73 3d f7 e2 57 bd
       -0.0091619855 -0.03765455 0.059503216 -0.052706685
000020 a8 8a 91 3d 45 07 40 bd 58 50 18 bd 22 b2 4e bd
       0.07106525 -0.046881933 -0.037185997 -0.05046285
000030 02 d1 26 bd 61 ca 4b 3d fd ef 7a bd d7 c8 8e bd
       -0.04072667 0.04975355 -0.061264027 -0.06971901
000040 d0 ae e2 3c 5c 99 be 3d fc ec 16 bd 52 22 ba 38
       0.027671248 0.09306595 -0.0368471 8.875564e-05
000050 8f 7b 35 bd 8a 65 8b 3d b1 4b 76 bd e6 39 c4 3d
       -0.044307288 0.068064764 -0.06013078 0.09581356
000060 2d 5a a3 3d c5 17 95 bd 73 44 ea 3c e5 2d 19 3d
       0.07976184 -0.07279924 0.028597092 0.037397284
000070 62 b8 89 3d 74 c0 34 bd 6f ef 38 bd 1f a3 a7 bd
       0.06724621 -0.04412885 -0.045150217 -0.0818541
000080 e6 98 4c 3d 8c 7b 61 3c 16 6a 38 3b 09 8c 06 bd
       0.049950503 0.013762366 0.0028139404 -0.03284839
000090 d1 39 57 bd 1e df 5a 3d 09 63 76 ba c7 7e 0c 39
       -0.052545372 0.053435437 -0.00093989127 0.00013398669
0000a0 0d 59 94 bd 7c 6c 57 3d 58 72 c2 3d 2b 1f ac bd
       -0.072435476 0.052593693 0.094944656 -0.08404382
0000b0 cf 1c 3c bd 99 28 a5 bd 1a 82 88 bd 28 1d a3 3d
       -0.04592591 -0.08064384 -0.0666544 0.079645455
0000c0 af 83 05 bd 58 8b de 3c b8 d7 93 bd 78 a2 66 bd
       -0.032596286 0.027166054 -0.072188795 -0.056307286
0000d0 61 a6 80 3d 0e 15 8d bc d7 d5 d6 bc 99 af 38 3d
       0.06281734 -0.017221954 -0.026225014 0.045089338
0000e0 88 5d 87 bd 6b 5a 8f bd 0e 7f 92 bd 03 22 15 3d
       -0.066096365 -0.06999668 -0.0715314 0.03640939
0000f0 90 b6 5a 3d c3 d0 9e bd 3c e6 96 3d 88 f9 fc 39
       0.05339676 -0.07754662 0.073681325 0.000482511
000100 aa 2d 5b 3d e5 02 6c bd 80 91 a9 bd 8a 55 02 3d
       0.053510346 -0.057619948 -0.08279705 0.031819858
000110 43 fc 0b 3d 58 4f 88 3d 3a 41 b8 bc 4b c1 2e 3d
       0.034176122 0.066557586 -0.02249204 0.042664807
000120 4f af 90 bc a6 75 ad 3c a9 a9 f4 bc cc 25 96 3b
       -0.017661719 0.021174263 -0.029866057 0.0045821425
000130 76 cb 4e bd 30 91 3a 3d b5 15 69 ba 2b 08 cb 3a
       -0.050487004 0.045548618 -0.0008891479 0.0015490105
000140 29 12 34 bd ba c4 a4 3d 1f d5 10 3d a7 d8 01 bd
       -0.04396263 0.08045335 0.035359498 -0.031700756

fc3.weight f4 [10, 84]
000000 31 f1 ae bd fd 63 8f 3c 2b d5 e5 bd 8b 70 ba bc
       -0.08542097 0.017503733 -0.11222299 -0.022758743
000010 fb 3e 09 bc 21 5e 89 3d 36 c1 ee 3c 3d 0f 63 3d
       -0.008376832 0.06707407 0.029144865 0.055434454
000020 34 ab c4 bd f3 72 e4 bd e0 8e 4f 3d 66 61 25 bc
       -0.09602967 -0.11154737 0.050673366 -0.010094022
000030 77 a1 38 bc dc b9 4e bd 57 1b 59 bc be 68 8f 3d
       -0.011268965 -0.050470218 -0.013251147 0.070024
000040 e8 b7 c0 3d e0 ef a1 3d 05 49 b6 bd 6a 65 e8 bd
       0.09410077 0.07907081 -0.08900646 -0.11347468
000050 9a bb 00 be 74 9f be bd 5d a8 43 bc 51 2a bc bd
       -0.12571564 -0.09307757 -0.011941996 -0.09187759
000060 c2 0c d0 bd f7 1b 8f bd a8 fe cd bd 8b 22 59 3d
       -0.10158683 -0.06987756 -0.100583375 0.05301146
000070 d5 d0 89 3d ea 21 b9 bd d5 f5 9b bd e8 37 ff 3c
       0.06729285 -0.09039672 -0.07615248 0.031154588
000080 83 f9 09 bd 23 22 91 bd d1 11 84 3d 1e b5 a2 bc
       -0.03368522 -0.07086589 0.06448711 -0.019861754
000090 45 08 9b bb c4 f1 4f bc 93 9c 0a be f0 93 b2 3d
       -0.0047312104 -0.012691919 -0.13536291 0.08719623
0000a0 81 4f c7 bd e5 75 42 3d 26 d1 e3 bd 96 7e 68 bd
       -0.09731961 0.047475714 -0.11123876 -0.056761347
0000b0 4d 70 e3 bd 5b 19 ad bd ad 78 15 bd b5 68 d3 bc
       -0.11105404 -0.08452102 -0.03649204 -0.025806764
0000c0 2d ea 15 bb 40 6a c5 bd 3d d4 0b 3d a0 48 61 bd
       -0.0022875175 -0.09639406 0.034137953 -0.0550009
0000d0 2d 5d d4 bd 96 93 98 3d 50 9c b0 bd ea c4 99 bd
       -0.10369334 0.07450025 -0.08623564 -0.075082615
0000e0 8a de af 3d 50 e1 e0 3d 53 01 48 3d ca 9a 19 bd
       0.08587368 0.10980475 0.048829388 -0.037501134
0000f0 a6 91 ae bd 2a d1 9d bd ce a4 ad bb 0c 1c aa 3d
       -0.08523874 -0.077059105 -0.0052991873 0.08306131
000100 af ac d8 bd 48 dd da 3d 46 73 83 bd 29 e8 1e 3d
       -0.10579812 0.10686737 -0.06418471 0.038795624
000110 0a a4 5a 3d b7 80 8e bc e9 fd 9c 39 42 93 5f bd
       0.053379096 -0.01739536 0.00029943816 -0.054583795
000120 89 8c fb 3d 22 ba ca 3d 3d 34 5a 3c 63 51 6e 3c
       0.12282664 0.09898783 0.013318119 0.014545771
000130 66 f1 1e bd be e5 c4 3d 29 7f 94 3d a1 73 3e 3b
       -0.038804434 0.09614132 0.072508164 0.002906062
000140 a9 17 08 bd 38 2e 96 bd 12 06 34 bc c1 4b 0c 3d
       -0.03322569 -0.07333034 -0.010987775 0.034251932
000150 7e a8 ef bd dc c1 51 3d 00 c3 cb 3c d7 23 8a 3b
       -0.11702059 0.05121027 0.024873257 0.004215698
000160 11 37 9f bd 6c e4 68 3d 17 f4 aa 3c 73 78 88 bd
       -0.07774175 0.056858465 0.020868344 -0.06663599
000170 74 24 3f 3d cf b7 90 bd cf bf 98 3d dc c1 ef 3d
       0.046665624 -0.07066309 0.074584596 0.117068976
000180 fd ca c7 bb 8e 56 81 bd 04 76 ce bd 89 03 2a 3d
       -0.006097196 -0.06315337 -0.100811034 0.041507278
000190 42 36 f0 bd 34 cf 82 3d 38 58 2a 3d 39 60 16 bd
       -0.11729099 0.06387177 0.04158804 -0.03671286
0001a0 7b 7a bb bd 76 b3 aa 3d 1c ff ce 3b 29 a3 9a 3d
       -0.09154221 0.08335011 0.0063170325 0.075506516
0001b0 8d 5d 2a bd b9 4c e5 3d 6d c0 be 3d 7f 41 39 bd
       -0.041593123 0.11196274 0.09314046 -0.045228478
0001c0 1b bd 19 3d 06 94 28 bd 92 2d d6 bd 75 30 7a bd
       0.03753386 -0.04115679 -0.104579106 -0.06108137
0001d0 f7 9f b5 bd 88 94 e6 3c 6e a4 c3 bc 15 ce 13 3d
       -0.088684015 0.028146997 -0.023882117 0.036085207
0001e0 d2 92 3d bd 8a d8 a5 3d 51 1e cf 3b f3 5c 7c 3d
       -0.046282597 0.08097942 0.0063207527 0.06161208
0001f0 53 00 40 bd fe 6d 14 3d 5b c7 5a bd 33 5f 8e 3d
       -0.04687531 0.03623771 -0.053412776 0.069517516
000200 87 c3 8a bd 4f 25 22 bd ec 66 8d 3d c3 1b be 3d
       -0.06775575 -0.03958636 0.069043964 0.09282639
000210 71 e6 fe 3c 7c 22 9c bb 76 90 f7 3c c3 7f 98 bd
       0.031115742 -0.004764853 0.030220252 -0.074462436
000220 b5 f5 e6 3d 86 fb 0c bd 51 29 1b bd 11 5d 85 bd
       0.11277334 -0.03441956 -0.0378812 -0.06511892
000230 07 5d ed bd d6 2d e3 bd b4 9c dc 3c 90 55 06 be
       -0.11590009 -0.11092727 0.02693019 -0.13118577
000240 d7 2b ef 3d bb 8a 25 bd d5 bb f1 3d 9b 08 d8 bc
       0.11678284 -0.040415507 0.11803404 -0.02637129
000250 d3 81 c5 3c 3c ef 43 3d 61 91 a6 bd ee 1f 44 3d
       0.024109757 0.047835574 -0.081331976 0.047882013
000260 3b cc 31 3d 5c 9f 6a 3d 75 f2 00 be e2 37 ef 3b
       0.04340766 0.057280883 -0.1259249 0.007300363
000270 0f 45 ca bd b4 d5 cc bd 5b 61 d8 bd 82 34 c3 bd
       -0.09876453 -0.10001698 -0.10565444 -0.095314994
000280 25 9a c7 bd e4 2b f6 3d f3 82 9f 3d 40 95 2e bc
       -0.097461976 0.1202009 0.077886485 -0.010655701
000290 26 84 40 3d 9c 78 a9 bd 8b 48 0d 3d 02 d8 c2 3c
       0.047001027 -0.082749575 0.03449301 0.023784641
0002a0 d8 89 b2 bd f9 17 b6 bb 9c 82 81 3d d3 2e 28 3d
       -0.08717698 -0.005557057 0.0632374 0.04106028
0002b0 42 9e a6 3d 8a a9 01 3d f3 51 2b 3d 8a 49 06 3d
       0.08135654 0.031655826 0.0418262 0.032784976
0002c0 3e 4e 66 3c 85 fd 39 3d 2a 09 66 bd 48 a2 83 3d
       0.01405674 0.04540779 -0.056161083 0.06427437
0002d0 3d b0 54 3c 6e 3d 2a bd b0 73 37 3d 5b 4a 2e 3d
       0.012981472 -0.04156249 0.044788063 0.04255138
0002e0 99 9b 9a 3d 2c bb b5 3d 1e ae 06 be 74 e6 39 3c
       0.07549209 0.08873591 -0.13152358 0.011346448
0002f0 8f f7 2b bd 41 66 b2 3d 6d c8 81 bd 56 e9 d9 3d
       -0.041984137 0.0871091 -0.06337056 0.106402084
000300 8a 07 92 bd 7b 60 9e bc 00 66 54 3d 1a f7 f6 3b
       -0.07130344 -0.019333115 0.051855087 0.007536781
000310 fd 35 c7 bd f0 9a e4 bc b2 8e 99 3d 21 0a a6 bd
       -0.09727094 -0.027905911 0.0749792 -0.08107401
000320 73 d5 60 3d 5d f3 f4 3b f7 2a fb 3d 85 2c ab bc
       0.05489106 0.0074753 0.12264054 -0.020895252
000330 07 59 cb 3d fb 25 cb bd f7 09 27 bd fa 20 9a bc
       0.0992909 -0.099193536 -0.040780988 -0.018814553
000340 04 f0 a6 3d 3d 17 fd bd eb 76 09 3d db 9e a7 3d
       0.08151248 -0.12357948 0.033560675 0.08184596
000350 d1 9e 47 3d b6 62 90 bd d2 c0 1d 3d c0 4e 50 bd
       0.048735444 -0.070500776 0.038513966 -0.05085635
000360 62 56 e2 3c 01 46 e3 bd c9 4c bf bd da fc c3 bc
       0.027629081 -0.110973366 -0.093408175 -0.02392428
000370 7c bc c0 bc e8 34 d3 bd aa da 21 3d 2a ca b6 bd
       -0.023527376 -0.103128254 0.039515175 -0.089252785
000380 11 e6 9a 3d f2 8d 91 bd f4 df c5 3c 64 0c ca bd
       0.07563413 -0.07107152 0.02415464 -0.098656446
000390 05 ed a0 3d d2 4b 2f bc 5d 55 3b bd be 6d 4d bd
       0.07857708 -0.010699229 -0.045735706 -0.050153486
0003a0 8f 42 a5 bd 9e b8 70 bb c4 98 b2 3d 93 f4 04 be
       -0.08069336 -0.0036731134 0.08720544 -0.12983923
0003b0 12 3b 92 bd a7 eb d0 3d 17 8d c1 bd 0b f2 e2 bd
       -0.07140173 0.10201197 -0.09450739 -0.11081322
0003c0 8c f8 c2 bd 58 8e 60 3c f1 21 a7 bc d9 61 05 3e
       -0.09520063 0.013705812 -0.020401927 0.13025607
0003d0 b5 72 27 3c b0 88 a7 bd 53 12 30 3d 26 06 e1 3c
       0.010220219 -0.08180368 0.042986225 0.027468752
0003e0 33 80 9d bd c2 2b a7 3b 31 bc d0 3d 6d 0c 9f 3d
       -0.07690468 0.005101652 0.10192145 0.07766042
0003f0 10 fe 51 bd 1e 43 2f 3c fb 79 a7 bd a9 00 96 bd
       -0.051267684 0.010697154 -0.08177563 -0.07324345

fc3.bias f4 [10]
000000 94 cd da 3b 64 0f 54 3d a0 6b dc 3d e6 fe 39 bd
       0.006677339 0.05177249 0.10762715 -0.045409106
000010 38 fa 8d 3d 8a 19 88 bd 4a 42 77 3d 05 0b b2 3d
       0.06932491 -0.06645496 0.060365953 0.08693508
000020 37 6b ba bd ad 48 0a bd
       -0.09102481 -0.033760715
